[25/26] Running the MLIR regression tests

Testing Time: 486.94s

Total Discovered Tests: 3865
  Skipped          :    3 (0.08%)
  Unsupported      :  494 (12.78%)
  Passed           : 3367 (87.12%)
  Expectedly Failed:    1 (0.03%)
root@d549e8fa1566:/data/workspace/llvm-project/build# vi ../mlir/lib/Dialect/MemRef/Transforms/FlattenMemRefs.cpp
root@d549e8fa1566:/data/workspace/llvm-project/build# ninja check-mlir -j1
[32/33] Running the MLIR regression tests
FAIL: MLIR :: Dialect/MemRef/flatten_memref.mlir (805 of 3183)
******************** TEST 'MLIR :: Dialect/MemRef/flatten_memref.mlir' FAILED ********************
Exit Code: 1

Command Output (stdout):
--
# RUN: at line 1
/data/workspace/llvm-project/build/bin/mlir-opt --flatten-memref /data/workspace/llvm-project/mlir/test/Dialect/MemRef/flatten_memref.mlir --split-input-file --verify-diagnostics | /data/workspace/llvm-project/build/bin/FileCheck /data/workspace/llvm-project/mlir/test/Dialect/MemRef/flatten_memref.mlir
# executed command: /data/workspace/llvm-project/build/bin/mlir-opt --flatten-memref /data/workspace/llvm-project/mlir/test/Dialect/MemRef/flatten_memref.mlir --split-input-file --verify-diagnostics
# executed command: /data/workspace/llvm-project/build/bin/FileCheck /data/workspace/llvm-project/mlir/test/Dialect/MemRef/flatten_memref.mlir
# .---command stderr------------
# | /data/workspace/llvm-project/mlir/test/Dialect/MemRef/flatten_memref.mlir:10:16: error: CHECK-NEXT: expected string not found in input
# | // CHECK-NEXT: %[[C10:.*]] = arith.constant 10 : index
# |                ^
# | <stdin>:2:36: note: scanning from here
# |  func.func @load_scalar_from_memref(%arg0: memref<4x8xf32, strided<[8, 1], offset: 100>>) -> f32 {
# |                                    ^
# | <stdin>:3:2: note: possible intended match here
# |  %c1 = arith.constant 1 : index
# |  ^
# | /data/workspace/llvm-project/mlir/test/Dialect/MemRef/flatten_memref.mlir:44:11: error: CHECK: expected string not found in input
# | // CHECK: %[[C188:.*]] = arith.constant 188 : index
# |           ^
# | <stdin>:20:103: note: scanning from here
# |  func.func @load_scalar_from_memref_static_dim(%arg0: memref<8x12xf32, strided<[24, 2], offset: 100>>) -> f32 {
# |                                                                                                       ^
# | <stdin>:22:2: note: possible intended match here
# |  %c10 = arith.constant 10 : index
# |  ^
# | /data/workspace/llvm-project/mlir/test/Dialect/MemRef/flatten_memref.mlir:258:16: error: CHECK-NEXT: expected string not found in input
# | // CHECK-NEXT: %[[ALLOC:.*]] = memref.alloc() : memref<32xf32, strided<[1]>>
# |                ^
# | <stdin>:182:39: note: scanning from here
# |  func.func @alloc() -> memref<4x8xf32> {
# |                                       ^
# | <stdin>:183:2: note: possible intended match here
# |  %alloc = memref.alloc() : memref<4x8xf32>
# |  ^
# | /data/workspace/llvm-project/mlir/test/Dialect/MemRef/flatten_memref.mlir:269:11: error: CHECK: expected string not found in input
# | // CHECK: %[[ALLOC:.*]] = memref.alloca() : memref<32xf32, strided<[1]>>
# |           ^
# | <stdin>:190:40: note: scanning from here
# |  func.func @alloca() -> memref<4x8xf32> {
# |                                        ^
# | <stdin>:191:4: note: possible intended match here
# |  %alloca = memref.alloca() : memref<4x8xf32>
# |    ^
# | /data/workspace/llvm-project/mlir/test/Dialect/MemRef/flatten_memref.mlir:285:16: error: CHECK-NEXT: expected string not found in input
# | // CHECK-NEXT: %[[ALLOC:.*]] = memref.alloc() : memref<32xf32, strided<[1]>>
# |                ^
# | <stdin>:199:34: note: scanning from here
# |  %c30 = arith.constant 30 : index
# |                                  ^
# | <stdin>:201:89: note: possible intended match here
# |  %reinterpret_cast = memref.reinterpret_cast %alloc to offset: [0], sizes: [32], strides: [1] : memref<4x8xf32> to memref<32xf32, strided<[1]>>
# |                                                                                         ^
# | 
# | Input file: <stdin>
# | Check file: /data/workspace/llvm-project/mlir/test/Dialect/MemRef/flatten_memref.mlir
# | 
# | -dump-input=help explains the following input dump.
# | 
# | Input was:
# | <<<<<<
# |              1: module { 
# |              2:  func.func @load_scalar_from_memref(%arg0: memref<4x8xf32, strided<[8, 1], offset: 100>>) -> f32 { 
# | next:10'0                                          X~~~~~~~~~~~~~~~~~~~~~~~~~~~~~~~~~~~~~~~~~~~~~~~~~~~~~~~~~~~~~~~ error: no match found
# |              3:  %c1 = arith.constant 1 : index 
# | next:10'0       ~~~~~~~~~~~~~~~~~~~~~~~~~~~~~~~~
# | next:10'1        ?                               possible intended match
# |              4:  %c2 = arith.constant 2 : index 
# | next:10'0       ~~~~~~~~~~~~~~~~~~~~~~~~~~~~~~~~
# |              5:  %0 = memref.load %arg0[%c1, %c2] : memref<4x8xf32, strided<[8, 1], offset: 100>> 
# | next:10'0       ~~~~~~~~~~~~~~~~~~~~~~~~~~~~~~~~~~~~~~~~~~~~~~~~~~~~~~~~~~~~~~~~~~~~~~~~~~~~~~~~~~
# |              6:  return %0 : f32 
# | next:10'0       ~~~~~~~~~~~~~~~~~
# |              7:  } 
# | next:10'0       ~~~
# |              8: } 
# | next:10'0       ~~
# |              .
# |              .
# |              .
# |             15:  } 
# | next:10'0       ~~~
# |             16: } 
# | next:10'0       ~~
# |             17:  
# | next:10'0       ~
# |             18: // ----- 
# | next:10'0       ~~~~~~~~~
# |             19: module { 
# | next:10'0       ~~~~~~~~~
# |             20:  func.func @load_scalar_from_memref_static_dim(%arg0: memref<8x12xf32, strided<[24, 2], offset: 100>>) -> f32 { 
# | next:10'0       ~~~~~~~~~~~~~~~~~~~~~~~~~~~~~~~~~~~~~~~~~~~~~~
# | check:44'0                                                                                                            X~~~~~~~~~ error: no match found
# |             21:  %c7 = arith.constant 7 : index 
# | check:44'0      ~~~~~~~~~~~~~~~~~~~~~~~~~~~~~~~~
# |             22:  %c10 = arith.constant 10 : index 
# | check:44'0      ~~~~~~~~~~~~~~~~~~~~~~~~~~~~~~~~~~
# | check:44'1       ?                                 possible intended match
# |             23:  %0 = memref.load %arg0[%c7, %c10] : memref<8x12xf32, strided<[24, 2], offset: 100>> 
# | check:44'0      ~~~~~~~~~~~~~~~~~~~~~~~~~~~~~~~~~~~~~~~~~~~~~~~~~~~~~~~~~~~~~~~~~~~~~~~~~~~~~~~~~~~~~
# |             24:  return %0 : f32 
# | check:44'0      ~~~~~~~~~~~~~~~~~
# |             25:  } 
# | check:44'0      ~~~
# |             26: } 
# | check:44'0      ~~
# |             27:  
# | check:44'0      ~
# |              .
# |              .
# |              .
# |            177:  } 
# |            178: } 
# |            179:  
# |            180: // ----- 
# |            181: module { 
# |            182:  func.func @alloc() -> memref<4x8xf32> { 
# | next:258'0                                            X~~ error: no match found
# |            183:  %alloc = memref.alloc() : memref<4x8xf32> 
# | next:258'0      ~~~~~~~~~~~~~~~~~~~~~~~~~~~~~~~~~~~~~~~~~~~
# | next:258'1       ?                                          possible intended match
# |            184:  return %alloc : memref<4x8xf32> 
# | next:258'0      ~~~~~~~~~~~~~~~~~~~~~~~~~~~~~~~~~
# |            185:  } 
# | next:258'0      ~~~
# |            186: } 
# | next:258'0      ~~
# |            187:  
# | next:258'0      ~
# |            188: // ----- 
# | next:258'0      ~~~~~~~~~
# |            189: module { 
# | next:258'0      ~~~~~~~~~
# |            190:  func.func @alloca() -> memref<4x8xf32> { 
# | next:258'0      ~~~~~~~~~~~~~~~~~~~~~~~~~~~~~~~~~~~~~~~
# | check:269'0                                            X~~ error: no match found
# |            191:  %alloca = memref.alloca() : memref<4x8xf32> 
# | check:269'0     ~~~~~~~~~~~~~~~~~~~~~~~~~~~~~~~~~~~~~~~~~~~~~
# | check:269'1        ?                                          possible intended match
# |            192:  return %alloca : memref<4x8xf32> 
# | check:269'0     ~~~~~~~~~~~~~~~~~~~~~~~~~~~~~~~~~~
# |            193:  } 
# | check:269'0     ~~~
# |            194: } 
# | check:269'0     ~~
# |            195:  
# | check:269'0     ~
# |            196: // ----- 
# | check:269'0     ~~~~~~~~~
# |            197: module { 
# | check:269'0     ~~~~~~~~~
# |            198:  func.func @chained_alloc_load() -> vector<8xf32> { 
# | check:269'0     ~~~~~~~~~~~~~~~~~~~~~~~~~~~~~~
# |            199:  %c30 = arith.constant 30 : index 
# | next:285'0                                       X error: no match found
# |            200:  %alloc = memref.alloc() : memref<4x8xf32> 
# | next:285'0      ~~~~~~~~~~~~~~~~~~~~~~~~~~~~~~~~~~~~~~~~~~~
# |            201:  %reinterpret_cast = memref.reinterpret_cast %alloc to offset: [0], sizes: [32], strides: [1] : memref<4x8xf32> to memref<32xf32, strided<[1]>> 
# | next:285'0      ~~~~~~~~~~~~~~~~~~~~~~~~~~~~~~~~~~~~~~~~~~~~~~~~~~~~~~~~~~~~~~~~~~~~~~~~~~~~~~~~~~~~~~~~~~~~~~~~~~~~~~~~~~~~~~~~~~~~~~~~~~~~~~~~~~~~~~~~~~~~~~~~
# | next:285'1                                                                                              ?                                                        possible intended match
# |            202:  %0 = vector.load %reinterpret_cast[%c30] : memref<32xf32, strided<[1]>>, vector<8xf32> 
# | next:285'0      ~~~~~~~~~~~~~~~~~~~~~~~~~~~~~~~~~~~~~~~~~~~~~~~~~~~~~~~~~~~~~~~~~~~~~~~~~~~~~~~~~~~~~~~~
# |            203:  return %0 : vector<8xf32> 
# | next:285'0      ~~~~~~~~~~~~~~~~~~~~~~~~~~~
# |            204:  } 
# | next:285'0      ~~~
# |            205: } 
# | next:285'0      ~~
# |            206:  
# | next:285'0      ~
# |              .
# |              .
# |              .
# | >>>>>>
# `-----------------------------
# error: command failed with exit status: 1

--

********************
********************
Failed Tests (1):
  MLIR :: Dialect/MemRef/flatten_memref.mlir


Testing Time: 493.39s

Total Discovered Tests: 3865
  Skipped          :    3 (0.08%)
  Unsupported      :  494 (12.78%)
  Passed           : 3366 (87.09%)
  Expectedly Failed:    1 (0.03%)
  Failed           :    1 (0.03%)
FAILED: tools/mlir/test/CMakeFiles/check-mlir /data/workspace/llvm-project/build/tools/mlir/test/CMakeFiles/check-mlir 
cd /data/workspace/llvm-project/build/tools/mlir/test && /usr/bin/python3.10 /data/workspace/llvm-project/build/./bin/llvm-lit -sv /data/workspace/llvm-project/build/tools/mlir/test
ninja: build stopped: subcommand failed.
