module {
  memref.global "private" constant @__constant_100xf32 : memref<100xf32> = dense_resource<torch_tensor_100_torch.float32> {alignment = 64 : i64}
  memref.global "private" constant @__constant_100x3200xf32 : memref<100x3200xf32> = dense_resource<torch_tensor_100_3200_torch.float32> {alignment = 64 : i64}
  memref.global "private" constant @__constant_32xf32 : memref<32xf32> = dense_resource<torch_tensor_32_torch.float32> {alignment = 64 : i64}
  memref.global "private" constant @__constant_32x16x3xf32 : memref<32x16x3xf32> = dense_resource<torch_tensor_32_16_3_torch.float32> {alignment = 64 : i64}
  memref.global "private" constant @__constant_16x1x3xf32 : memref<16x1x3xf32> = dense_resource<torch_tensor_16_1_3_torch.float32> {alignment = 64 : i64}
  memref.global "private" constant @__constant_16xf32 : memref<16xf32> = dense_resource<torch_tensor_16_torch.float32> {alignment = 64 : i64}
  func.func @main(%arg0: memref<8x1x100xf32, strided<[?, ?, ?], offset: ?>>) -> memref<8x100xf32> {
    %c3200 = arith.constant 3200 : index
    %c32 = arith.constant 32 : index
    %c3 = arith.constant 3 : index
    %c100 = arith.constant 100 : index
    %c16 = arith.constant 16 : index
    %c102 = arith.constant 102 : index
    %c1 = arith.constant 1 : index
    %c8 = arith.constant 8 : index
    %c0 = arith.constant 0 : index
    %cst = arith.constant 0.000000e+00 : f32
    %0 = memref.get_global @__constant_16xf32 : memref<16xf32>
    %1 = memref.get_global @__constant_16x1x3xf32 : memref<16x1x3xf32>
    %2 = memref.get_global @__constant_32x16x3xf32 : memref<32x16x3xf32>
    %3 = memref.get_global @__constant_32xf32 : memref<32xf32>
    %4 = memref.get_global @__constant_100x3200xf32 : memref<100x3200xf32>
    %5 = memref.get_global @__constant_100xf32 : memref<100xf32>
    %alloc = memref.alloc() {alignment = 64 : i64} : memref<8x1x102xf32>
    cf.br ^bb1(%c0 : index)
  ^bb1(%6: index):  // 2 preds: ^bb0, ^bb6
    %7 = arith.cmpi slt, %6, %c8 : index
    cf.cond_br %7, ^bb2(%c0 : index), ^bb7
  ^bb2(%8: index):  // 2 preds: ^bb1, ^bb5
    %9 = arith.cmpi slt, %8, %c1 : index
    cf.cond_br %9, ^bb3(%c0 : index), ^bb6
  ^bb3(%10: index):  // 2 preds: ^bb2, ^bb4
    %11 = arith.cmpi slt, %10, %c102 : index
    cf.cond_br %11, ^bb4, ^bb5
  ^bb4:  // pred: ^bb3
    memref.store %cst, %alloc[%6, %8, %10] : memref<8x1x102xf32>
    %12 = arith.addi %10, %c1 : index
    cf.br ^bb3(%12 : index)
  ^bb5:  // pred: ^bb3
    %13 = arith.addi %8, %c1 : index
    cf.br ^bb2(%13 : index)
  ^bb6:  // pred: ^bb2
    %14 = arith.addi %6, %c1 : index
    cf.br ^bb1(%14 : index)
  ^bb7:  // pred: ^bb1
    %subview = memref.subview %alloc[0, 0, 1] [8, 1, 100] [1, 1, 1] : memref<8x1x102xf32> to memref<8x1x100xf32, strided<[102, 102, 1], offset: 1>>
    memref.copy %arg0, %subview : memref<8x1x100xf32, strided<[?, ?, ?], offset: ?>> to memref<8x1x100xf32, strided<[102, 102, 1], offset: 1>>
    %alloc_0 = memref.alloc() {alignment = 64 : i64} : memref<8x16x100xf32>
    cf.br ^bb8(%c0 : index)
  ^bb8(%15: index):  // 2 preds: ^bb7, ^bb13
    %16 = arith.cmpi slt, %15, %c8 : index
    cf.cond_br %16, ^bb9(%c0 : index), ^bb14(%c0 : index)
  ^bb9(%17: index):  // 2 preds: ^bb8, ^bb12
    %18 = arith.cmpi slt, %17, %c16 : index
    cf.cond_br %18, ^bb10(%c0 : index), ^bb13
  ^bb10(%19: index):  // 2 preds: ^bb9, ^bb11
    %20 = arith.cmpi slt, %19, %c100 : index
    cf.cond_br %20, ^bb11, ^bb12
  ^bb11:  // pred: ^bb10
    %21 = memref.load %0[%17] : memref<16xf32>
    memref.store %21, %alloc_0[%15, %17, %19] : memref<8x16x100xf32>
    %22 = arith.addi %19, %c1 : index
    cf.br ^bb10(%22 : index)
  ^bb12:  // pred: ^bb10
    %23 = arith.addi %17, %c1 : index
    cf.br ^bb9(%23 : index)
  ^bb13:  // pred: ^bb9
    %24 = arith.addi %15, %c1 : index
    cf.br ^bb8(%24 : index)
  ^bb14(%25: index):  // 2 preds: ^bb8, ^bb23
    %26 = arith.cmpi slt, %25, %c8 : index
    cf.cond_br %26, ^bb15(%c0 : index), ^bb24(%c0 : index)
  ^bb15(%27: index):  // 2 preds: ^bb14, ^bb22
    %28 = arith.cmpi slt, %27, %c16 : index
    cf.cond_br %28, ^bb16(%c0 : index), ^bb23
  ^bb16(%29: index):  // 2 preds: ^bb15, ^bb21
    %30 = arith.cmpi slt, %29, %c100 : index
    cf.cond_br %30, ^bb17(%c0 : index), ^bb22
  ^bb17(%31: index):  // 2 preds: ^bb16, ^bb20
    %32 = arith.cmpi slt, %31, %c1 : index
    cf.cond_br %32, ^bb18(%c0 : index), ^bb21
  ^bb18(%33: index):  // 2 preds: ^bb17, ^bb19
    %34 = arith.cmpi slt, %33, %c3 : index
    cf.cond_br %34, ^bb19, ^bb20
  ^bb19:  // pred: ^bb18
    %35 = arith.addi %29, %33 : index
    %36 = memref.load %alloc[%25, %31, %35] : memref<8x1x102xf32>
    %37 = memref.load %1[%27, %31, %33] : memref<16x1x3xf32>
    %38 = memref.load %alloc_0[%25, %27, %29] : memref<8x16x100xf32>
    %39 = arith.mulf %36, %37 : f32
    %40 = arith.addf %38, %39 : f32
    memref.store %40, %alloc_0[%25, %27, %29] : memref<8x16x100xf32>
    %41 = arith.addi %33, %c1 : index
    cf.br ^bb18(%41 : index)
  ^bb20:  // pred: ^bb18
    %42 = arith.addi %31, %c1 : index
    cf.br ^bb17(%42 : index)
  ^bb21:  // pred: ^bb17
    %43 = arith.addi %29, %c1 : index
    cf.br ^bb16(%43 : index)
  ^bb22:  // pred: ^bb16
    %44 = arith.addi %27, %c1 : index
    cf.br ^bb15(%44 : index)
  ^bb23:  // pred: ^bb15
    %45 = arith.addi %25, %c1 : index
    cf.br ^bb14(%45 : index)
  ^bb24(%46: index):  // 2 preds: ^bb14, ^bb29
    %47 = arith.cmpi slt, %46, %c8 : index
    cf.cond_br %47, ^bb25(%c0 : index), ^bb30
  ^bb25(%48: index):  // 2 preds: ^bb24, ^bb28
    %49 = arith.cmpi slt, %48, %c16 : index
    cf.cond_br %49, ^bb26(%c0 : index), ^bb29
  ^bb26(%50: index):  // 2 preds: ^bb25, ^bb27
    %51 = arith.cmpi slt, %50, %c100 : index
    cf.cond_br %51, ^bb27, ^bb28
  ^bb27:  // pred: ^bb26
    %52 = memref.load %alloc_0[%46, %48, %50] : memref<8x16x100xf32>
    %53 = arith.cmpf ugt, %52, %cst : f32
    %54 = arith.select %53, %52, %cst : f32
    memref.store %54, %alloc_0[%46, %48, %50] : memref<8x16x100xf32>
    %55 = arith.addi %50, %c1 : index
    cf.br ^bb26(%55 : index)
  ^bb28:  // pred: ^bb26
    %56 = arith.addi %48, %c1 : index
    cf.br ^bb25(%56 : index)
  ^bb29:  // pred: ^bb25
    %57 = arith.addi %46, %c1 : index
    cf.br ^bb24(%57 : index)
  ^bb30:  // pred: ^bb24
    %alloc_1 = memref.alloc() {alignment = 64 : i64} : memref<8x16x102xf32>
    cf.br ^bb31(%c0 : index)
  ^bb31(%58: index):  // 2 preds: ^bb30, ^bb36
    %59 = arith.cmpi slt, %58, %c8 : index
    cf.cond_br %59, ^bb32(%c0 : index), ^bb37
  ^bb32(%60: index):  // 2 preds: ^bb31, ^bb35
    %61 = arith.cmpi slt, %60, %c16 : index
    cf.cond_br %61, ^bb33(%c0 : index), ^bb36
  ^bb33(%62: index):  // 2 preds: ^bb32, ^bb34
    %63 = arith.cmpi slt, %62, %c102 : index
    cf.cond_br %63, ^bb34, ^bb35
  ^bb34:  // pred: ^bb33
    memref.store %cst, %alloc_1[%58, %60, %62] : memref<8x16x102xf32>
    %64 = arith.addi %62, %c1 : index
    cf.br ^bb33(%64 : index)
  ^bb35:  // pred: ^bb33
    %65 = arith.addi %60, %c1 : index
    cf.br ^bb32(%65 : index)
  ^bb36:  // pred: ^bb32
    %66 = arith.addi %58, %c1 : index
    cf.br ^bb31(%66 : index)
  ^bb37:  // pred: ^bb31
    %subview_2 = memref.subview %alloc_1[0, 0, 1] [8, 16, 100] [1, 1, 1] : memref<8x16x102xf32> to memref<8x16x100xf32, strided<[1632, 102, 1], offset: 1>>
    memref.copy %alloc_0, %subview_2 : memref<8x16x100xf32> to memref<8x16x100xf32, strided<[1632, 102, 1], offset: 1>>
    %alloc_3 = memref.alloc() {alignment = 64 : i64} : memref<8x32x100xf32>
    cf.br ^bb38(%c0 : index)
  ^bb38(%67: index):  // 2 preds: ^bb37, ^bb43
    %68 = arith.cmpi slt, %67, %c8 : index
    cf.cond_br %68, ^bb39(%c0 : index), ^bb44(%c0 : index)
  ^bb39(%69: index):  // 2 preds: ^bb38, ^bb42
    %70 = arith.cmpi slt, %69, %c32 : index
    cf.cond_br %70, ^bb40(%c0 : index), ^bb43
  ^bb40(%71: index):  // 2 preds: ^bb39, ^bb41
    %72 = arith.cmpi slt, %71, %c100 : index
    cf.cond_br %72, ^bb41, ^bb42
  ^bb41:  // pred: ^bb40
    %73 = memref.load %3[%69] : memref<32xf32>
    memref.store %73, %alloc_3[%67, %69, %71] : memref<8x32x100xf32>
    %74 = arith.addi %71, %c1 : index
    cf.br ^bb40(%74 : index)
  ^bb42:  // pred: ^bb40
    %75 = arith.addi %69, %c1 : index
    cf.br ^bb39(%75 : index)
  ^bb43:  // pred: ^bb39
    %76 = arith.addi %67, %c1 : index
    cf.br ^bb38(%76 : index)
  ^bb44(%77: index):  // 2 preds: ^bb38, ^bb53
    %78 = arith.cmpi slt, %77, %c8 : index
    cf.cond_br %78, ^bb45(%c0 : index), ^bb54(%c0 : index)
  ^bb45(%79: index):  // 2 preds: ^bb44, ^bb52
    %80 = arith.cmpi slt, %79, %c32 : index
    cf.cond_br %80, ^bb46(%c0 : index), ^bb53
  ^bb46(%81: index):  // 2 preds: ^bb45, ^bb51
    %82 = arith.cmpi slt, %81, %c100 : index
    cf.cond_br %82, ^bb47(%c0 : index), ^bb52
  ^bb47(%83: index):  // 2 preds: ^bb46, ^bb50
    %84 = arith.cmpi slt, %83, %c16 : index
    cf.cond_br %84, ^bb48(%c0 : index), ^bb51
  ^bb48(%85: index):  // 2 preds: ^bb47, ^bb49
    %86 = arith.cmpi slt, %85, %c3 : index
    cf.cond_br %86, ^bb49, ^bb50
  ^bb49:  // pred: ^bb48
    %87 = arith.addi %81, %85 : index
    %88 = memref.load %alloc_1[%77, %83, %87] : memref<8x16x102xf32>
    %89 = memref.load %2[%79, %83, %85] : memref<32x16x3xf32>
    %90 = memref.load %alloc_3[%77, %79, %81] : memref<8x32x100xf32>
    %91 = arith.mulf %88, %89 : f32
    %92 = arith.addf %90, %91 : f32
    memref.store %92, %alloc_3[%77, %79, %81] : memref<8x32x100xf32>
    %93 = arith.addi %85, %c1 : index
    cf.br ^bb48(%93 : index)
  ^bb50:  // pred: ^bb48
    %94 = arith.addi %83, %c1 : index
    cf.br ^bb47(%94 : index)
  ^bb51:  // pred: ^bb47
    %95 = arith.addi %81, %c1 : index
    cf.br ^bb46(%95 : index)
  ^bb52:  // pred: ^bb46
    %96 = arith.addi %79, %c1 : index
    cf.br ^bb45(%96 : index)
  ^bb53:  // pred: ^bb45
    %97 = arith.addi %77, %c1 : index
    cf.br ^bb44(%97 : index)
  ^bb54(%98: index):  // 2 preds: ^bb44, ^bb59
    %99 = arith.cmpi slt, %98, %c8 : index
    cf.cond_br %99, ^bb55(%c0 : index), ^bb60
  ^bb55(%100: index):  // 2 preds: ^bb54, ^bb58
    %101 = arith.cmpi slt, %100, %c32 : index
    cf.cond_br %101, ^bb56(%c0 : index), ^bb59
  ^bb56(%102: index):  // 2 preds: ^bb55, ^bb57
    %103 = arith.cmpi slt, %102, %c100 : index
    cf.cond_br %103, ^bb57, ^bb58
  ^bb57:  // pred: ^bb56
    %104 = memref.load %alloc_3[%98, %100, %102] : memref<8x32x100xf32>
    %105 = arith.cmpf ugt, %104, %cst : f32
    %106 = arith.select %105, %104, %cst : f32
    memref.store %106, %alloc_3[%98, %100, %102] : memref<8x32x100xf32>
    %107 = arith.addi %102, %c1 : index
    cf.br ^bb56(%107 : index)
  ^bb58:  // pred: ^bb56
    %108 = arith.addi %100, %c1 : index
    cf.br ^bb55(%108 : index)
  ^bb59:  // pred: ^bb55
    %109 = arith.addi %98, %c1 : index
    cf.br ^bb54(%109 : index)
  ^bb60:  // pred: ^bb54
    %collapse_shape = memref.collapse_shape %alloc_3 [[0], [1, 2]] : memref<8x32x100xf32> into memref<8x3200xf32>
    %alloc_4 = memref.alloc() {alignment = 64 : i64} : memref<3200x100xf32>
    cf.br ^bb61(%c0 : index)
  ^bb61(%110: index):  // 2 preds: ^bb60, ^bb64
    %111 = arith.cmpi slt, %110, %c3200 : index
    cf.cond_br %111, ^bb62(%c0 : index), ^bb65
  ^bb62(%112: index):  // 2 preds: ^bb61, ^bb63
    %113 = arith.cmpi slt, %112, %c100 : index
    cf.cond_br %113, ^bb63, ^bb64
  ^bb63:  // pred: ^bb62
    %114 = memref.load %4[%112, %110] : memref<100x3200xf32>
    memref.store %114, %alloc_4[%110, %112] : memref<3200x100xf32>
    %115 = arith.addi %112, %c1 : index
    cf.br ^bb62(%115 : index)
  ^bb64:  // pred: ^bb62
    %116 = arith.addi %110, %c1 : index
    cf.br ^bb61(%116 : index)
  ^bb65:  // pred: ^bb61
    %alloc_5 = memref.alloc() {alignment = 64 : i64} : memref<8x100xf32>
    cf.br ^bb66(%c0 : index)
  ^bb66(%117: index):  // 2 preds: ^bb65, ^bb69
    %118 = arith.cmpi slt, %117, %c8 : index
    cf.cond_br %118, ^bb67(%c0 : index), ^bb70(%c0 : index)
  ^bb67(%119: index):  // 2 preds: ^bb66, ^bb68
    %120 = arith.cmpi slt, %119, %c100 : index
    cf.cond_br %120, ^bb68, ^bb69
  ^bb68:  // pred: ^bb67
    memref.store %cst, %alloc_5[%117, %119] : memref<8x100xf32>
    %121 = arith.addi %119, %c1 : index
    cf.br ^bb67(%121 : index)
  ^bb69:  // pred: ^bb67
    %122 = arith.addi %117, %c1 : index
    cf.br ^bb66(%122 : index)
  ^bb70(%123: index):  // 2 preds: ^bb66, ^bb75
    %124 = arith.cmpi slt, %123, %c8 : index
    cf.cond_br %124, ^bb71(%c0 : index), ^bb76(%c0 : index)
  ^bb71(%125: index):  // 2 preds: ^bb70, ^bb74
    %126 = arith.cmpi slt, %125, %c100 : index
    cf.cond_br %126, ^bb72(%c0 : index), ^bb75
  ^bb72(%127: index):  // 2 preds: ^bb71, ^bb73
    %128 = arith.cmpi slt, %127, %c3200 : index
    cf.cond_br %128, ^bb73, ^bb74
  ^bb73:  // pred: ^bb72
    %129 = memref.load %collapse_shape[%123, %127] : memref<8x3200xf32>
    %130 = memref.load %alloc_4[%127, %125] : memref<3200x100xf32>
    %131 = memref.load %alloc_5[%123, %125] : memref<8x100xf32>
    %132 = arith.mulf %129, %130 : f32
    %133 = arith.addf %131, %132 : f32
    memref.store %133, %alloc_5[%123, %125] : memref<8x100xf32>
    %134 = arith.addi %127, %c1 : index
    cf.br ^bb72(%134 : index)
  ^bb74:  // pred: ^bb72
    %135 = arith.addi %125, %c1 : index
    cf.br ^bb71(%135 : index)
  ^bb75:  // pred: ^bb71
    %136 = arith.addi %123, %c1 : index
    cf.br ^bb70(%136 : index)
  ^bb76(%137: index):  // 2 preds: ^bb70, ^bb79
    %138 = arith.cmpi slt, %137, %c8 : index
    cf.cond_br %138, ^bb77(%c0 : index), ^bb80
  ^bb77(%139: index):  // 2 preds: ^bb76, ^bb78
    %140 = arith.cmpi slt, %139, %c100 : index
    cf.cond_br %140, ^bb78, ^bb79
  ^bb78:  // pred: ^bb77
    %141 = memref.load %alloc_5[%137, %139] : memref<8x100xf32>
    %142 = memref.load %5[%139] : memref<100xf32>
    %143 = arith.addf %141, %142 : f32
    memref.store %143, %alloc_5[%137, %139] : memref<8x100xf32>
    %144 = arith.addi %139, %c1 : index
    cf.br ^bb77(%144 : index)
  ^bb79:  // pred: ^bb77
    %145 = arith.addi %137, %c1 : index
    cf.br ^bb76(%145 : index)
  ^bb80:  // pred: ^bb76
    return %alloc_5 : memref<8x100xf32>
  }
}

{-#
  dialect_resources: {
    builtin: {
      torch_tensor_100_torch.float32: "…",
      torch_tensor_100_3200_torch.float32: "…",
      torch_tensor_32_torch.float32: "…",
      torch_tensor_32_16_3_torch.float32: "…",
      torch_tensor_16_1_3_torch.float32: "…",
      torch_tensor_16_torch.float32: "…"
    }
  }
#-}

