#map = affine_map<()[s0, s1, s2, s3] -> (s0 * 21632 + s1 * 676 + s2 * 26 + s3)>
#map1 = affine_map<()[s0, s1, s2] -> (s0 * 784 + s1 * 28 + s2)>
#map2 = affine_map<()[s0, s1, s2] -> (s0 * 9 + s1 * 3 + s2)>
#map3 = affine_map<()[s0, s1, s2, s3] -> (s0 * 36864 + s1 * 576 + s2 * 24 + s3)>
#map4 = affine_map<()[s0, s1, s2, s3] -> (s0 * 288 + s1 * 9 + s2 * 3 + s3)>
#map5 = affine_map<()[s0, s1, s2, s3] -> (s0 * 30976 + s1 * 484 + s2 * 22 + s3)>
#map6 = affine_map<()[s0, s1, s2, s3] -> (s0 * 576 + s1 * 9 + s2 * 3 + s3)>
#map7 = affine_map<()[s0, s1] -> (s0 * 30976 + s1)>
#map8 = affine_map<()[s0, s1] -> (s0 * 10 + s1)>
module {
  memref.global "private" constant @__constant_10xf32 : memref<10xf32> = dense_resource<torch_tensor_10_torch.float32> {alignment = 64 : i64}
  memref.global "private" constant @__constant_10x30976xf32 : memref<10x30976xf32> = dense_resource<torch_tensor_10_30976_torch.float32> {alignment = 64 : i64}
  memref.global "private" constant @__constant_64xf32_0 : memref<64xf32> = dense_resource<torch_tensor_64_torch.float32_1> {alignment = 64 : i64}
  memref.global "private" constant @__constant_64x64x3x3xf32 : memref<64x64x3x3xf32> = dense_resource<torch_tensor_64_64_3_3_torch.float32> {alignment = 64 : i64}
  memref.global "private" constant @__constant_64xf32 : memref<64xf32> = dense_resource<torch_tensor_64_torch.float32> {alignment = 64 : i64}
  memref.global "private" constant @__constant_64x32x3x3xf32 : memref<64x32x3x3xf32> = dense_resource<torch_tensor_64_32_3_3_torch.float32> {alignment = 64 : i64}
  memref.global "private" constant @__constant_32x1x3x3xf32 : memref<32x1x3x3xf32> = dense_resource<torch_tensor_32_1_3_3_torch.float32> {alignment = 64 : i64}
  memref.global "private" constant @__constant_32xf32 : memref<32xf32> = dense_resource<torch_tensor_32_torch.float32> {alignment = 64 : i64}
  func.func @main(%arg0: memref<32x1x28x28xf32>) -> memref<32x10xf32> {
    %c10 = arith.constant 10 : index
    %c30976 = arith.constant 30976 : index
    %c22 = arith.constant 22 : index
    %c24 = arith.constant 24 : index
    %c64 = arith.constant 64 : index
    %c3 = arith.constant 3 : index
    %c26 = arith.constant 26 : index
    %c1 = arith.constant 1 : index
    %c32 = arith.constant 32 : index
    %c0 = arith.constant 0 : index
    %cst = arith.constant 0.000000e+00 : f32
    %0 = memref.get_global @__constant_32xf32 : memref<32xf32>
    %1 = memref.get_global @__constant_32x1x3x3xf32 : memref<32x1x3x3xf32>
    %2 = memref.get_global @__constant_64x32x3x3xf32 : memref<64x32x3x3xf32>
    %3 = memref.get_global @__constant_64xf32 : memref<64xf32>
    %4 = memref.get_global @__constant_64x64x3x3xf32 : memref<64x64x3x3xf32>
    %5 = memref.get_global @__constant_64xf32_0 : memref<64xf32>
    %6 = memref.get_global @__constant_10x30976xf32 : memref<10x30976xf32>
    %7 = memref.get_global @__constant_10xf32 : memref<10xf32>
    %alloc = memref.alloc() {alignment = 64 : i64} : memref<692224xf32, strided<[1]>>
    cf.br ^bb1(%c0 : index)
  ^bb1(%8: index):  // 2 preds: ^bb0, ^bb8
    %9 = arith.cmpi slt, %8, %c32 : index
    cf.cond_br %9, ^bb2(%c0 : index), ^bb9(%c0 : index)
  ^bb2(%10: index):  // 2 preds: ^bb1, ^bb7
    %11 = arith.cmpi slt, %10, %c32 : index
    cf.cond_br %11, ^bb3(%c0 : index), ^bb8
  ^bb3(%12: index):  // 2 preds: ^bb2, ^bb6
    %13 = arith.cmpi slt, %12, %c26 : index
    cf.cond_br %13, ^bb4(%c0 : index), ^bb7
  ^bb4(%14: index):  // 2 preds: ^bb3, ^bb5
    %15 = arith.cmpi slt, %14, %c26 : index
    cf.cond_br %15, ^bb5, ^bb6
  ^bb5:  // pred: ^bb4
    %16 = memref.load %0[%10] : memref<32xf32>
    %17 = affine.apply #map()[%8, %10, %12, %14]
    memref.store %16, %alloc[%17] : memref<692224xf32, strided<[1]>>
    %18 = arith.addi %14, %c1 : index
    cf.br ^bb4(%18 : index)
  ^bb6:  // pred: ^bb4
    %19 = arith.addi %12, %c1 : index
    cf.br ^bb3(%19 : index)
  ^bb7:  // pred: ^bb3
    %20 = arith.addi %10, %c1 : index
    cf.br ^bb2(%20 : index)
  ^bb8:  // pred: ^bb2
    %21 = arith.addi %8, %c1 : index
    cf.br ^bb1(%21 : index)
  ^bb9(%22: index):  // 2 preds: ^bb1, ^bb20
    %23 = arith.cmpi slt, %22, %c32 : index
    cf.cond_br %23, ^bb10(%c0 : index), ^bb21(%c0 : index)
  ^bb10(%24: index):  // 2 preds: ^bb9, ^bb19
    %25 = arith.cmpi slt, %24, %c32 : index
    cf.cond_br %25, ^bb11(%c0 : index), ^bb20
  ^bb11(%26: index):  // 2 preds: ^bb10, ^bb18
    %27 = arith.cmpi slt, %26, %c26 : index
    cf.cond_br %27, ^bb12(%c0 : index), ^bb19
  ^bb12(%28: index):  // 2 preds: ^bb11, ^bb17
    %29 = arith.cmpi slt, %28, %c26 : index
    cf.cond_br %29, ^bb13(%c0 : index), ^bb18
  ^bb13(%30: index):  // 2 preds: ^bb12, ^bb16
    %31 = arith.cmpi slt, %30, %c3 : index
    cf.cond_br %31, ^bb14(%c0 : index), ^bb17
  ^bb14(%32: index):  // 2 preds: ^bb13, ^bb15
    %33 = arith.cmpi slt, %32, %c3 : index
    cf.cond_br %33, ^bb15, ^bb16
  ^bb15:  // pred: ^bb14
    %34 = arith.addi %26, %30 : index
    %35 = arith.addi %28, %32 : index
    %36 = affine.apply #map1()[%22, %34, %35]
    %reinterpret_cast = memref.reinterpret_cast %arg0 to offset: [0], sizes: [25088], strides: [1] : memref<32x1x28x28xf32> to memref<25088xf32, strided<[1]>>
    %37 = memref.load %reinterpret_cast[%36] : memref<25088xf32, strided<[1]>>
    %38 = affine.apply #map2()[%24, %30, %32]
    %reinterpret_cast_0 = memref.reinterpret_cast %1 to offset: [0], sizes: [288], strides: [1] : memref<32x1x3x3xf32> to memref<288xf32, strided<[1]>>
    %39 = memref.load %reinterpret_cast_0[%38] : memref<288xf32, strided<[1]>>
    %40 = affine.apply #map()[%22, %24, %26, %28]
    %41 = memref.load %alloc[%40] : memref<692224xf32, strided<[1]>>
    %42 = arith.mulf %37, %39 : f32
    %43 = arith.addf %41, %42 : f32
    %44 = affine.apply #map()[%22, %24, %26, %28]
    memref.store %43, %alloc[%44] : memref<692224xf32, strided<[1]>>
    %45 = arith.addi %32, %c1 : index
    cf.br ^bb14(%45 : index)
  ^bb16:  // pred: ^bb14
    %46 = arith.addi %30, %c1 : index
    cf.br ^bb13(%46 : index)
  ^bb17:  // pred: ^bb13
    %47 = arith.addi %28, %c1 : index
    cf.br ^bb12(%47 : index)
  ^bb18:  // pred: ^bb12
    %48 = arith.addi %26, %c1 : index
    cf.br ^bb11(%48 : index)
  ^bb19:  // pred: ^bb11
    %49 = arith.addi %24, %c1 : index
    cf.br ^bb10(%49 : index)
  ^bb20:  // pred: ^bb10
    %50 = arith.addi %22, %c1 : index
    cf.br ^bb9(%50 : index)
  ^bb21(%51: index):  // 2 preds: ^bb9, ^bb28
    %52 = arith.cmpi slt, %51, %c32 : index
    cf.cond_br %52, ^bb22(%c0 : index), ^bb29
  ^bb22(%53: index):  // 2 preds: ^bb21, ^bb27
    %54 = arith.cmpi slt, %53, %c32 : index
    cf.cond_br %54, ^bb23(%c0 : index), ^bb28
  ^bb23(%55: index):  // 2 preds: ^bb22, ^bb26
    %56 = arith.cmpi slt, %55, %c26 : index
    cf.cond_br %56, ^bb24(%c0 : index), ^bb27
  ^bb24(%57: index):  // 2 preds: ^bb23, ^bb25
    %58 = arith.cmpi slt, %57, %c26 : index
    cf.cond_br %58, ^bb25, ^bb26
  ^bb25:  // pred: ^bb24
    %59 = affine.apply #map()[%51, %53, %55, %57]
    %60 = memref.load %alloc[%59] : memref<692224xf32, strided<[1]>>
    %61 = arith.cmpf ugt, %60, %cst : f32
    %62 = arith.select %61, %60, %cst : f32
    %63 = affine.apply #map()[%51, %53, %55, %57]
    memref.store %62, %alloc[%63] : memref<692224xf32, strided<[1]>>
    %64 = arith.addi %57, %c1 : index
    cf.br ^bb24(%64 : index)
  ^bb26:  // pred: ^bb24
    %65 = arith.addi %55, %c1 : index
    cf.br ^bb23(%65 : index)
  ^bb27:  // pred: ^bb23
    %66 = arith.addi %53, %c1 : index
    cf.br ^bb22(%66 : index)
  ^bb28:  // pred: ^bb22
    %67 = arith.addi %51, %c1 : index
    cf.br ^bb21(%67 : index)
  ^bb29:  // pred: ^bb21
    %alloc_1 = memref.alloc() {alignment = 64 : i64} : memref<1179648xf32, strided<[1]>>
    cf.br ^bb30(%c0 : index)
  ^bb30(%68: index):  // 2 preds: ^bb29, ^bb37
    %69 = arith.cmpi slt, %68, %c32 : index
    cf.cond_br %69, ^bb31(%c0 : index), ^bb38(%c0 : index)
  ^bb31(%70: index):  // 2 preds: ^bb30, ^bb36
    %71 = arith.cmpi slt, %70, %c64 : index
    cf.cond_br %71, ^bb32(%c0 : index), ^bb37
  ^bb32(%72: index):  // 2 preds: ^bb31, ^bb35
    %73 = arith.cmpi slt, %72, %c24 : index
    cf.cond_br %73, ^bb33(%c0 : index), ^bb36
  ^bb33(%74: index):  // 2 preds: ^bb32, ^bb34
    %75 = arith.cmpi slt, %74, %c24 : index
    cf.cond_br %75, ^bb34, ^bb35
  ^bb34:  // pred: ^bb33
    %76 = memref.load %3[%70] : memref<64xf32>
    %77 = affine.apply #map3()[%68, %70, %72, %74]
    memref.store %76, %alloc_1[%77] : memref<1179648xf32, strided<[1]>>
    %78 = arith.addi %74, %c1 : index
    cf.br ^bb33(%78 : index)
  ^bb35:  // pred: ^bb33
    %79 = arith.addi %72, %c1 : index
    cf.br ^bb32(%79 : index)
  ^bb36:  // pred: ^bb32
    %80 = arith.addi %70, %c1 : index
    cf.br ^bb31(%80 : index)
  ^bb37:  // pred: ^bb31
    %81 = arith.addi %68, %c1 : index
    cf.br ^bb30(%81 : index)
  ^bb38(%82: index):  // 2 preds: ^bb30, ^bb51
    %83 = arith.cmpi slt, %82, %c32 : index
    cf.cond_br %83, ^bb39(%c0 : index), ^bb52(%c0 : index)
  ^bb39(%84: index):  // 2 preds: ^bb38, ^bb50
    %85 = arith.cmpi slt, %84, %c64 : index
    cf.cond_br %85, ^bb40(%c0 : index), ^bb51
  ^bb40(%86: index):  // 2 preds: ^bb39, ^bb49
    %87 = arith.cmpi slt, %86, %c24 : index
    cf.cond_br %87, ^bb41(%c0 : index), ^bb50
  ^bb41(%88: index):  // 2 preds: ^bb40, ^bb48
    %89 = arith.cmpi slt, %88, %c24 : index
    cf.cond_br %89, ^bb42(%c0 : index), ^bb49
  ^bb42(%90: index):  // 2 preds: ^bb41, ^bb47
    %91 = arith.cmpi slt, %90, %c32 : index
    cf.cond_br %91, ^bb43(%c0 : index), ^bb48
  ^bb43(%92: index):  // 2 preds: ^bb42, ^bb46
    %93 = arith.cmpi slt, %92, %c3 : index
    cf.cond_br %93, ^bb44(%c0 : index), ^bb47
  ^bb44(%94: index):  // 2 preds: ^bb43, ^bb45
    %95 = arith.cmpi slt, %94, %c3 : index
    cf.cond_br %95, ^bb45, ^bb46
  ^bb45:  // pred: ^bb44
    %96 = arith.addi %86, %92 : index
    %97 = arith.addi %88, %94 : index
    %98 = affine.apply #map()[%82, %90, %96, %97]
    %99 = memref.load %alloc[%98] : memref<692224xf32, strided<[1]>>
    %100 = affine.apply #map4()[%84, %90, %92, %94]
    %reinterpret_cast_2 = memref.reinterpret_cast %2 to offset: [0], sizes: [18432], strides: [1] : memref<64x32x3x3xf32> to memref<18432xf32, strided<[1]>>
    %101 = memref.load %reinterpret_cast_2[%100] : memref<18432xf32, strided<[1]>>
    %102 = affine.apply #map3()[%82, %84, %86, %88]
    %103 = memref.load %alloc_1[%102] : memref<1179648xf32, strided<[1]>>
    %104 = arith.mulf %99, %101 : f32
    %105 = arith.addf %103, %104 : f32
    %106 = affine.apply #map3()[%82, %84, %86, %88]
    memref.store %105, %alloc_1[%106] : memref<1179648xf32, strided<[1]>>
    %107 = arith.addi %94, %c1 : index
    cf.br ^bb44(%107 : index)
  ^bb46:  // pred: ^bb44
    %108 = arith.addi %92, %c1 : index
    cf.br ^bb43(%108 : index)
  ^bb47:  // pred: ^bb43
    %109 = arith.addi %90, %c1 : index
    cf.br ^bb42(%109 : index)
  ^bb48:  // pred: ^bb42
    %110 = arith.addi %88, %c1 : index
    cf.br ^bb41(%110 : index)
  ^bb49:  // pred: ^bb41
    %111 = arith.addi %86, %c1 : index
    cf.br ^bb40(%111 : index)
  ^bb50:  // pred: ^bb40
    %112 = arith.addi %84, %c1 : index
    cf.br ^bb39(%112 : index)
  ^bb51:  // pred: ^bb39
    %113 = arith.addi %82, %c1 : index
    cf.br ^bb38(%113 : index)
  ^bb52(%114: index):  // 2 preds: ^bb38, ^bb59
    %115 = arith.cmpi slt, %114, %c32 : index
    cf.cond_br %115, ^bb53(%c0 : index), ^bb60
  ^bb53(%116: index):  // 2 preds: ^bb52, ^bb58
    %117 = arith.cmpi slt, %116, %c64 : index
    cf.cond_br %117, ^bb54(%c0 : index), ^bb59
  ^bb54(%118: index):  // 2 preds: ^bb53, ^bb57
    %119 = arith.cmpi slt, %118, %c24 : index
    cf.cond_br %119, ^bb55(%c0 : index), ^bb58
  ^bb55(%120: index):  // 2 preds: ^bb54, ^bb56
    %121 = arith.cmpi slt, %120, %c24 : index
    cf.cond_br %121, ^bb56, ^bb57
  ^bb56:  // pred: ^bb55
    %122 = affine.apply #map3()[%114, %116, %118, %120]
    %123 = memref.load %alloc_1[%122] : memref<1179648xf32, strided<[1]>>
    %124 = arith.cmpf ugt, %123, %cst : f32
    %125 = arith.select %124, %123, %cst : f32
    %126 = affine.apply #map3()[%114, %116, %118, %120]
    memref.store %125, %alloc_1[%126] : memref<1179648xf32, strided<[1]>>
    %127 = arith.addi %120, %c1 : index
    cf.br ^bb55(%127 : index)
  ^bb57:  // pred: ^bb55
    %128 = arith.addi %118, %c1 : index
    cf.br ^bb54(%128 : index)
  ^bb58:  // pred: ^bb54
    %129 = arith.addi %116, %c1 : index
    cf.br ^bb53(%129 : index)
  ^bb59:  // pred: ^bb53
    %130 = arith.addi %114, %c1 : index
    cf.br ^bb52(%130 : index)
  ^bb60:  // pred: ^bb52
    %alloc_3 = memref.alloc() {alignment = 64 : i64} : memref<991232xf32, strided<[1]>>
    %reinterpret_cast_4 = memref.reinterpret_cast %alloc_3 to offset: [0], sizes: [32, 64, 22, 22], strides: [30976, 484, 22, 1] : memref<991232xf32, strided<[1]>> to memref<32x64x22x22xf32>
    cf.br ^bb61(%c0 : index)
  ^bb61(%131: index):  // 2 preds: ^bb60, ^bb68
    %132 = arith.cmpi slt, %131, %c32 : index
    cf.cond_br %132, ^bb62(%c0 : index), ^bb69(%c0 : index)
  ^bb62(%133: index):  // 2 preds: ^bb61, ^bb67
    %134 = arith.cmpi slt, %133, %c64 : index
    cf.cond_br %134, ^bb63(%c0 : index), ^bb68
  ^bb63(%135: index):  // 2 preds: ^bb62, ^bb66
    %136 = arith.cmpi slt, %135, %c22 : index
    cf.cond_br %136, ^bb64(%c0 : index), ^bb67
  ^bb64(%137: index):  // 2 preds: ^bb63, ^bb65
    %138 = arith.cmpi slt, %137, %c22 : index
    cf.cond_br %138, ^bb65, ^bb66
  ^bb65:  // pred: ^bb64
    %139 = memref.load %5[%133] : memref<64xf32>
    %140 = affine.apply #map5()[%131, %133, %135, %137]
    memref.store %139, %alloc_3[%140] : memref<991232xf32, strided<[1]>>
    %141 = arith.addi %137, %c1 : index
    cf.br ^bb64(%141 : index)
  ^bb66:  // pred: ^bb64
    %142 = arith.addi %135, %c1 : index
    cf.br ^bb63(%142 : index)
  ^bb67:  // pred: ^bb63
    %143 = arith.addi %133, %c1 : index
    cf.br ^bb62(%143 : index)
  ^bb68:  // pred: ^bb62
    %144 = arith.addi %131, %c1 : index
    cf.br ^bb61(%144 : index)
  ^bb69(%145: index):  // 2 preds: ^bb61, ^bb82
    %146 = arith.cmpi slt, %145, %c32 : index
    cf.cond_br %146, ^bb70(%c0 : index), ^bb83(%c0 : index)
  ^bb70(%147: index):  // 2 preds: ^bb69, ^bb81
    %148 = arith.cmpi slt, %147, %c64 : index
    cf.cond_br %148, ^bb71(%c0 : index), ^bb82
  ^bb71(%149: index):  // 2 preds: ^bb70, ^bb80
    %150 = arith.cmpi slt, %149, %c22 : index
    cf.cond_br %150, ^bb72(%c0 : index), ^bb81
  ^bb72(%151: index):  // 2 preds: ^bb71, ^bb79
    %152 = arith.cmpi slt, %151, %c22 : index
    cf.cond_br %152, ^bb73(%c0 : index), ^bb80
  ^bb73(%153: index):  // 2 preds: ^bb72, ^bb78
    %154 = arith.cmpi slt, %153, %c64 : index
    cf.cond_br %154, ^bb74(%c0 : index), ^bb79
  ^bb74(%155: index):  // 2 preds: ^bb73, ^bb77
    %156 = arith.cmpi slt, %155, %c3 : index
    cf.cond_br %156, ^bb75(%c0 : index), ^bb78
  ^bb75(%157: index):  // 2 preds: ^bb74, ^bb76
    %158 = arith.cmpi slt, %157, %c3 : index
    cf.cond_br %158, ^bb76, ^bb77
  ^bb76:  // pred: ^bb75
    %159 = arith.addi %149, %155 : index
    %160 = arith.addi %151, %157 : index
    %161 = affine.apply #map3()[%145, %153, %159, %160]
    %162 = memref.load %alloc_1[%161] : memref<1179648xf32, strided<[1]>>
    %163 = affine.apply #map6()[%147, %153, %155, %157]
    %reinterpret_cast_5 = memref.reinterpret_cast %4 to offset: [0], sizes: [36864], strides: [1] : memref<64x64x3x3xf32> to memref<36864xf32, strided<[1]>>
    %164 = memref.load %reinterpret_cast_5[%163] : memref<36864xf32, strided<[1]>>
    %165 = affine.apply #map5()[%145, %147, %149, %151]
    %166 = memref.load %alloc_3[%165] : memref<991232xf32, strided<[1]>>
    %167 = arith.mulf %162, %164 : f32
    %168 = arith.addf %166, %167 : f32
    %169 = affine.apply #map5()[%145, %147, %149, %151]
    memref.store %168, %alloc_3[%169] : memref<991232xf32, strided<[1]>>
    %170 = arith.addi %157, %c1 : index
    cf.br ^bb75(%170 : index)
  ^bb77:  // pred: ^bb75
    %171 = arith.addi %155, %c1 : index
    cf.br ^bb74(%171 : index)
  ^bb78:  // pred: ^bb74
    %172 = arith.addi %153, %c1 : index
    cf.br ^bb73(%172 : index)
  ^bb79:  // pred: ^bb73
    %173 = arith.addi %151, %c1 : index
    cf.br ^bb72(%173 : index)
  ^bb80:  // pred: ^bb72
    %174 = arith.addi %149, %c1 : index
    cf.br ^bb71(%174 : index)
  ^bb81:  // pred: ^bb71
    %175 = arith.addi %147, %c1 : index
    cf.br ^bb70(%175 : index)
  ^bb82:  // pred: ^bb70
    %176 = arith.addi %145, %c1 : index
    cf.br ^bb69(%176 : index)
  ^bb83(%177: index):  // 2 preds: ^bb69, ^bb90
    %178 = arith.cmpi slt, %177, %c32 : index
    cf.cond_br %178, ^bb84(%c0 : index), ^bb91
  ^bb84(%179: index):  // 2 preds: ^bb83, ^bb89
    %180 = arith.cmpi slt, %179, %c64 : index
    cf.cond_br %180, ^bb85(%c0 : index), ^bb90
  ^bb85(%181: index):  // 2 preds: ^bb84, ^bb88
    %182 = arith.cmpi slt, %181, %c22 : index
    cf.cond_br %182, ^bb86(%c0 : index), ^bb89
  ^bb86(%183: index):  // 2 preds: ^bb85, ^bb87
    %184 = arith.cmpi slt, %183, %c22 : index
    cf.cond_br %184, ^bb87, ^bb88
  ^bb87:  // pred: ^bb86
    %185 = affine.apply #map5()[%177, %179, %181, %183]
    %186 = memref.load %alloc_3[%185] : memref<991232xf32, strided<[1]>>
    %187 = arith.cmpf ugt, %186, %cst : f32
    %188 = arith.select %187, %186, %cst : f32
    %189 = affine.apply #map5()[%177, %179, %181, %183]
    memref.store %188, %alloc_3[%189] : memref<991232xf32, strided<[1]>>
    %190 = arith.addi %183, %c1 : index
    cf.br ^bb86(%190 : index)
  ^bb88:  // pred: ^bb86
    %191 = arith.addi %181, %c1 : index
    cf.br ^bb85(%191 : index)
  ^bb89:  // pred: ^bb85
    %192 = arith.addi %179, %c1 : index
    cf.br ^bb84(%192 : index)
  ^bb90:  // pred: ^bb84
    %193 = arith.addi %177, %c1 : index
    cf.br ^bb83(%193 : index)
  ^bb91:  // pred: ^bb83
    %collapse_shape = memref.collapse_shape %reinterpret_cast_4 [[0], [1, 2, 3]] : memref<32x64x22x22xf32> into memref<32x30976xf32>
    %alloc_6 = memref.alloc() {alignment = 64 : i64} : memref<309760xf32, strided<[1]>>
    cf.br ^bb92(%c0 : index)
  ^bb92(%194: index):  // 2 preds: ^bb91, ^bb95
    %195 = arith.cmpi slt, %194, %c30976 : index
    cf.cond_br %195, ^bb93(%c0 : index), ^bb96
  ^bb93(%196: index):  // 2 preds: ^bb92, ^bb94
    %197 = arith.cmpi slt, %196, %c10 : index
    cf.cond_br %197, ^bb94, ^bb95
  ^bb94:  // pred: ^bb93
    %198 = affine.apply #map7()[%196, %194]
    %reinterpret_cast_7 = memref.reinterpret_cast %6 to offset: [0], sizes: [309760], strides: [1] : memref<10x30976xf32> to memref<309760xf32, strided<[1]>>
    %199 = memref.load %reinterpret_cast_7[%198] : memref<309760xf32, strided<[1]>>
    %200 = affine.apply #map8()[%194, %196]
    memref.store %199, %alloc_6[%200] : memref<309760xf32, strided<[1]>>
    %201 = arith.addi %196, %c1 : index
    cf.br ^bb93(%201 : index)
  ^bb95:  // pred: ^bb93
    %202 = arith.addi %194, %c1 : index
    cf.br ^bb92(%202 : index)
  ^bb96:  // pred: ^bb92
    %alloc_8 = memref.alloc() {alignment = 64 : i64} : memref<320xf32, strided<[1]>>
    %reinterpret_cast_9 = memref.reinterpret_cast %alloc_8 to offset: [0], sizes: [32, 10], strides: [10, 1] : memref<320xf32, strided<[1]>> to memref<32x10xf32>
    cf.br ^bb97(%c0 : index)
  ^bb97(%203: index):  // 2 preds: ^bb96, ^bb100
    %204 = arith.cmpi slt, %203, %c32 : index
    cf.cond_br %204, ^bb98(%c0 : index), ^bb101(%c0 : index)
  ^bb98(%205: index):  // 2 preds: ^bb97, ^bb99
    %206 = arith.cmpi slt, %205, %c10 : index
    cf.cond_br %206, ^bb99, ^bb100
  ^bb99:  // pred: ^bb98
    %207 = affine.apply #map8()[%203, %205]
    memref.store %cst, %alloc_8[%207] : memref<320xf32, strided<[1]>>
    %208 = arith.addi %205, %c1 : index
    cf.br ^bb98(%208 : index)
  ^bb100:  // pred: ^bb98
    %209 = arith.addi %203, %c1 : index
    cf.br ^bb97(%209 : index)
  ^bb101(%210: index):  // 2 preds: ^bb97, ^bb106
    %211 = arith.cmpi slt, %210, %c32 : index
    cf.cond_br %211, ^bb102(%c0 : index), ^bb107(%c0 : index)
  ^bb102(%212: index):  // 2 preds: ^bb101, ^bb105
    %213 = arith.cmpi slt, %212, %c10 : index
    cf.cond_br %213, ^bb103(%c0 : index), ^bb106
  ^bb103(%214: index):  // 2 preds: ^bb102, ^bb104
    %215 = arith.cmpi slt, %214, %c30976 : index
    cf.cond_br %215, ^bb104, ^bb105
  ^bb104:  // pred: ^bb103
    %216 = affine.apply #map7()[%210, %214]
    %reinterpret_cast_10 = memref.reinterpret_cast %collapse_shape to offset: [0], sizes: [991232], strides: [1] : memref<32x30976xf32> to memref<991232xf32, strided<[1]>>
    %217 = memref.load %reinterpret_cast_10[%216] : memref<991232xf32, strided<[1]>>
    %218 = affine.apply #map8()[%214, %212]
    %219 = memref.load %alloc_6[%218] : memref<309760xf32, strided<[1]>>
    %220 = affine.apply #map8()[%210, %212]
    %221 = memref.load %alloc_8[%220] : memref<320xf32, strided<[1]>>
    %222 = arith.mulf %217, %219 : f32
    %223 = arith.addf %221, %222 : f32
    %224 = affine.apply #map8()[%210, %212]
    memref.store %223, %alloc_8[%224] : memref<320xf32, strided<[1]>>
    %225 = arith.addi %214, %c1 : index
    cf.br ^bb103(%225 : index)
  ^bb105:  // pred: ^bb103
    %226 = arith.addi %212, %c1 : index
    cf.br ^bb102(%226 : index)
  ^bb106:  // pred: ^bb102
    %227 = arith.addi %210, %c1 : index
    cf.br ^bb101(%227 : index)
  ^bb107(%228: index):  // 2 preds: ^bb101, ^bb110
    %229 = arith.cmpi slt, %228, %c32 : index
    cf.cond_br %229, ^bb108(%c0 : index), ^bb111
  ^bb108(%230: index):  // 2 preds: ^bb107, ^bb109
    %231 = arith.cmpi slt, %230, %c10 : index
    cf.cond_br %231, ^bb109, ^bb110
  ^bb109:  // pred: ^bb108
    %232 = affine.apply #map8()[%228, %230]
    %233 = memref.load %alloc_8[%232] : memref<320xf32, strided<[1]>>
    %234 = memref.load %7[%230] : memref<10xf32>
    %235 = arith.addf %233, %234 : f32
    %236 = affine.apply #map8()[%228, %230]
    memref.store %235, %alloc_8[%236] : memref<320xf32, strided<[1]>>
    %237 = arith.addi %230, %c1 : index
    cf.br ^bb108(%237 : index)
  ^bb110:  // pred: ^bb108
    %238 = arith.addi %228, %c1 : index
    cf.br ^bb107(%238 : index)
  ^bb111:  // pred: ^bb107
    return %reinterpret_cast_9 : memref<32x10xf32>
  }
}

{-#
  dialect_resources: {
    builtin: {
      torch_tensor_10_torch.float32: "…",
      torch_tensor_10_30976_torch.float32: "…",
      torch_tensor_64_torch.float32_1: "…",
      torch_tensor_64_64_3_3_torch.float32: "…",
      torch_tensor_64_torch.float32: "…",
      torch_tensor_64_32_3_3_torch.float32: "…",
      torch_tensor_32_1_3_3_torch.float32: "…",
      torch_tensor_32_torch.float32: "…"
    }
  }
#-}

